data.pth (torch, 7231 bytes, 6 tensors)

l1.weight f4 [8, 79]
00000000: 6981 073f 0209 8040 c100 a83e 36be ef3f
00000010: 1027 f83f f803 a93f ca67 0740 0466 f33f
00000020: 655c 4740 7ab4 2640 6442 fa3f 4e49 513e
00000030: cee7 f13e 1005 5d3f 905a 0540 01e7 5440
00000040: 07fd ce3e 9d11 863e 5444 9f40 8b58 453f
00000050: 15ec 8a3f 718a 683f f184 4940 bcc4 c23f
00000060: 8595 713f 22b4 a640 c233 4c40 b160 8e40
00000070: bc42 a940 a1c1 9f40 4f48 2f3f 897c 173f
00000080: ae9b 4c3f 3457 063f 59e2 ab3f 9099 163f
00000090: 0c70 fe3f 7ad7 253e c0ef a63f 62d1 ab3f
000000a0: 4827 b240 9e36 df3f ff25 f63f 7854 073f
000000b0: 15b0 0d3f a7b7 5740 e629 973f 323d fa3f
000000c0: 1b52 0b40 a64f 34bf 8e7c f73f 74f6 6c40
000000d0: 7e9f e23f 9da1 b73e eb8b ee3f dd7f 743f
000000e0: ee63 833f 1ca0 cc3f 783b e23f c9b7 883f
000000f0: 012a 883f 6948 6d40 5e5a 983f 369c e23f
00000100: f735 9a40 66e9 4540 39c1 463f fe1f 0340
00000110: 266a 1e3f ab87 e13f f332 533f d960 d33f
00000120: 9c30 b740 a737 0040 c7b9 1e40 1158 8e3f
00000130: 9cc3 273f c9a5 9e40 02dd 8a40 6708 603f
00000140: ab15 5a40 6e40 b63f 5a02 4f3f f7bb 1c3f
00000150: 68ab 7a3f d85f ab3f 3585 c33f 2a50 d43f
00000160: 00e8 3a40 b455 953e 5260 3b40 cf08 d13f
00000170: 10fa b93f 400f ba3f 26c1 f23f efa7 0a3f
00000180: 9c09 b13e afed 5b40 b8ff 8d3f 1d63 3b3f
00000190: 8c86 943f e93a fe3f 82fe ea3f 1924 7840
000001a0: c7f2 5340 981a 4640 95c8 2040 bc35 5240
000001b0: 31ae 0140 dafa 0c3f 6662 303f 875b 1240
000001c0: 50e1 d73f d1e2 863f e97f d43f c294 903f
000001d0: 81aa a03e 667a d83f 068a 0d40 234d 2140
000001e0: 344b e63f d290 543f b50b 483f 3b49 d63e
000001f0: d2c1 a53f 9362 6c3f 7820 4f3f c9fd 8f3f
00000200: 372f 8f3e b3f1 f13f e29a 4e40 e3a1 0240
00000210: 6b0b 5140 1754 c53f cee8 8840 bbb1 493f
00000220: b0e5 1240 a4c3 dd3f 3440 7940 7909 723f
00000230: f902 7140 d04f 4a3f 65a0 6c3f 4d62 9a40
00000240: a10c 5140 8ae2 03bf ebd0 913f 6947 263f
00000250: e334 593f e1cc db3f ffd3 b03f 4c74 2840
00000260: ef4b c63f 74de bb3f 93c0 523f 27aa 913e
00000270: 912a 3b40 934d 7440 d2f7 483f eba9 5840
00000280: b9c9 643e dcdf cf3f 7fd0 ad3f 67de 0640
00000290: 1a6d 973f 72ea e53f 01e8 963f 270a 6140
000002a0: 5948 4c40 2c45 043e 4fd2 0540 8856 8d3f
000002b0: 1473 103f 94d0 ea3f 4d31 263f 3422 493e
000002c0: 6862 a140 b0fb a43f 204a 043e ae8a 4cbf
000002d0: 92d1 fc3f b00a 2140 0825 a03f 0eb1 3b40
000002e0: 2b17 4940 e99b 1440 4990 3e40 0fca 8240
000002f0: a3e7 c53e 2bda 403f b597 343f a040 0a40
00000300: cca3 84be 6c13 103f a3ee 9d3f 7309 8c3e
00000310: 7122 9d3f 25bb 73bf 5582 9840 e7be 1640
00000320: eac2 c03f f101 193f 56f8 153f 1b5c 77be
00000330: d5e2 b63f 73b7 c03f 3cc0 6540 0715 51bf
00000340: a649 033f 89aa a33f 17e9 173f 6b07 a03f
00000350: 634a 963f a935 b540 4f9f c03f e62b 263e
00000360: bf8a 1340 18ac aa3f 4101 bb3f fe9f 7640
00000370: c42a bb3f 9046 7a40 fa07 a540 bf0c 4e40
00000380: 575c 923f ce21 963f 87ec 083f 2d7a 0f3f
00000390: 2208 853f 57f1 543f ae31 9a40 da84 f93f
000003a0: 3081 a63f 126f c33f a6ce 5840 7c27 2c40
000003b0: 9ea3 6340 6d7c db3e 613e 3c40 a9c8 383e
000003c0: 7c02 da3f c079 5e3f 29a8 973f 9cd9 f23f
000003d0: 3532 3e40 f67e 3f40 9909 5f40 e5ec ec3f
000003e0: 38f5 31bf 966a 1440 cf73 443f ed02 3e3e
000003f0: 2f71 3640 2fcd c53e a086 49be 104d a33f
0.5293184 4.0010996 0.32813075 1.8729923 1.9386921 1.3204336 2.1157098 1.9015508
3.1150143 2.6047654 1.9551511 0.2043812 0.47247165 0.8633585 2.0836525 3.3265994
0.4042742 0.26185313 4.977091 0.7708823 1.0853297 0.90836245 3.148739 1.5216289
0.94368774 5.209489 3.190659 4.449303 5.2893963 4.9923863 0.6846971 0.591744
0.7992505 0.5247681 1.3428451 0.5882807 1.9877944 0.16195479 1.3041916 1.3423274
5.567295 1.7438543 1.9230345 0.52863264 0.55346805 3.3705842 1.1809661 1.9549925
2.1768863 -0.70434034 1.9334886 3.7025423 1.7704923 0.3586549 1.863645 0.95507604
1.0264871 1.5986362 1.7674398 1.0681087 1.0637819 3.7075446 1.1902578 1.7703922
4.8190875 3.0923705 0.77638584 2.0488276 0.6188072 1.7619528 0.8249962 1.651393
5.724684 2.0033967 2.480089 1.1120626 0.6553285 4.9577374 4.3394785 0.8751282
3.4075725 1.4238412 0.80862963 0.6122431 0.97917795 1.3388624 1.5275027 1.6586964
2.9204102 0.2916695 2.927754 1.6330813 1.4529438 1.4535904 1.8965194 0.54162496
0.34577644 3.436382 1.1093664 0.7319811 1.160356 1.9861728 1.835892 3.8772032
3.311693 3.0953732 2.5122426 3.2845297 2.0262568 0.5507027 0.68900144 2.2868364
1.6865635 1.0537969 1.6601535 1.1295397 0.31380084 1.6912353 2.2115493 2.520333
1.79917 0.8303348 0.78142864 0.41852745 1.2949774 0.9233791 0.8090892 1.1249324
0.2796571 1.8901886 3.2282033 2.0411308 3.266322 1.5416287 4.2784185 0.7878682
2.295269 1.732533 3.8945436 0.94545704 3.7658064 0.79028034 0.9243224 4.8244996
3.2663958 -0.51517546 1.1391882 0.64952713 0.84846324 1.7171899 1.3814696 2.6320982
1.5491923 1.4677262 0.82325095 0.28450128 2.924473 3.8172348 0.78503144 3.385371
0.22342576 1.6240191 1.3579253 2.1073244 1.183017 1.7962172 1.1789552 3.5162446
3.1919158 0.12917012 2.0909612 1.1042032 0.56425595 1.8344903 0.6491898 0.19641954
5.0432625 1.2889309 0.12918901 -0.7989911 1.9751456 2.5162773 1.2511301 2.9326816
3.142039 2.322016 2.9775565 4.0871654 0.38653287 0.753329 0.70543987 2.1601944
-0.25906217 0.56279635 1.2338451 0.2735096 1.2276136 -0.95207435 4.7659097 2.3554018
1.5059483 0.5976859 0.58582056 -0.24156229 1.4287974 1.5055984 3.589858 -0.8167271
0.51284254 1.2786418 0.5934004 1.2502264 1.1741451 5.6628003 1.5048617 0.16227683
2.3053434 1.3333769 1.4609758 3.8535151 1.4622426 3.9105568 5.1572237 3.219528
1.143443 1.1729066 0.5348591 0.560458 1.0393107 0.83180755 4.8185644 1.9493668
1.3008175 1.5268271 3.3876128 2.68991 3.5568614 0.42868367 2.9413073 0.18045296
1.7032008 0.86904526 1.1848193 1.8972659 2.9718144 2.992124 3.4849608 1.8509794
-0.695148 2.3190055 0.7673921 0.18555804 2.8506582 0.38633105 -0.19680262 1.2757893

l1.bias f4 [8]
00000000: e868 eb3f e773 df3f a1f8 cb3f da05 0040
00000010: b48f 963f b77b 2040 382a f73f 6f62 0b40
1.839139 1.7457246 1.593525 2.0003572 1.1762605 2.507551 1.9309759 2.177883

l2.weight f4 [8, 8]
00000000: 369f aebf a359 9e3f 6563 60be 029c edbd
00000010: b527 a93f 0496 2040 80ca 1d40 a9ce b23e
00000020: 2c38 1040 0e52 3740 f0de ffbf 06f1 1abe
00000030: 06fe b83a d581 f53e 100d 0140 1200 883f
00000040: d8aa 413e 9b36 8d3f 2135 7240 f30d 6d3f
00000050: 58dc 8d3f 10b4 8f3f 8f5e 583f e1e7 2c40
00000060: 3ae7 3c40 e11c 9a3e 9e7b 813f d3f5 94bf
00000070: db50 4ebf ceaa 2c40 cd5f 0840 20ff b53f
00000080: a1a0 ea3f 7734 e1be 1187 c03f 0a91 6240
00000090: fb65 01bf c4f9 0c40 7ae2 0140 53aa 5c40
000000a0: 3f9f 533f 0afb 2040 4014 3b40 8e4d 2040
000000b0: f0fd 87bf 683a bb3f c0eb da3f 22e4 02bf
000000c0: bc03 3a40 8649 f43f 5cae b13f 705b ea3f
000000d0: 2a55 3440 d438 b43f 15fa 69bf 5bfe 9fbe
000000e0: e407 e63f 537c 043f 4449 3940 40ec 94bf
000000f0: 8f5c 1dbe 6e34 d23f 8106 163f a93b 5bbf
-1.3642337 1.2371105 -0.21912916 -0.11602022 1.3215243 2.5091562 2.4654846 0.34923294
2.2534285 2.8643832 -1.998991 -0.15131006 0.0014113791 0.47950616 2.0164223 1.0625021
0.18912828 1.1032289 3.7844927 0.9259941 1.1082869 1.1226826 0.84519285 2.7016528
2.951613 0.30100158 1.011585 -1.163752 -0.80592126 2.697925 2.1308472 1.4218483
1.833027 -0.4398534 1.5041219 3.5401025 -0.50546235 2.2027445 2.029448 3.4478958
0.82664865 2.5153222 2.923111 2.5047336 -1.062437 1.4627199 1.7103195 -0.51129353
2.906478 1.9084938 1.3881335 1.8309155 2.817698 1.4079843 -0.9139722 -0.31248745
1.7971158 0.51752204 2.8950968 -1.1634598 -0.1536734 1.642225 0.58603674 -0.8563791

l2.bias f4 [8]
00000000: c148 123f d210 143f 5b0a 613f 66d9 333f
00000010: 44ce 8b3f c19b 123f 3aeb 023f 3fdd 933e
0.57142264 0.57838166 0.87906426 0.702536 1.0922322 0.5726891 0.5114018 0.28879735

l3.weight f4 [26, 8]
00000000: 65af 67bf ad01 4fc0 450c cdbe 65c4 37bf
00000010: 91d4 e7bc 8e55 b5bf ce35 12bf 5bd6 0bbf
00000020: cfcf d6bf e2b3 d8bf 316d d73e 9343 2cc0
00000030: 2826 973e 48cc 793d 30df d4bf 1f45 02c0
00000040: 460f 11c0 b14f c8bf 177f c53e b88a efbf
00000050: f55b eb3e 03a5 24c0 a5b0 f03e 56ad cebf
00000060: 2461 28c0 ad79 04c0 6255 f0bf 54c7 e7bf
00000070: 1675 2e3e 7a50 253f 3800 19be ca67 59bf
00000080: 5129 763f 458e d83d 0ef4 08c0 e996 cdbd
00000090: 2897 0fc0 a61e 2cbf 6554 71bf b989 fd39
000000a0: c666 afbe d81b 07bf 1404 6abf b836 94bf
000000b0: cc57 82bf 139e 3bbe 7494 d0bf 4150 15bf
000000c0: 80db 9cbf 5135 56bf fd0e 03c0 e610 523e
000000d0: 00be 24c0 c4cb e03e 5073 bdbe 9018 223f
000000e0: a75e 2bbe 80fa 153f 72b5 4ec0 0a8e 18c0
000000f0: 3332 3abf df46 4f3f feea bfbe 56b1 82bf
00000100: 8fc8 0abf a6b5 c13e f33e 7bc0 26ab d13e
00000110: dd37 66bf 9d4a a6bd d037 99bf 2ee3 09bc
00000120: b6f3 11bf 2e15 813f e090 34c0 b240 ebbe
00000130: 44f7 24c0 4780 bebe afae 2c3f f1af ec3c
00000140: e8cf d83e 7165 973e 3c25 d83e bf87 1cc0
00000150: feae 40c0 9f55 2ebf 7d43 0e3e fcb6 2abf
00000160: 7b45 333e 4562 fabf 75e7 38be 97e0 44c0
00000170: d777 8ebf df5a bd3d 085a 29bf 7aeb ba3d
00000180: e6ab c63b 2949 943e 2621 debf a920 62bf
00000190: 6952 c53e 4da3 063c 5e74 58c0 cde5 1dc0
000001a0: c296 9a3e 5e13 dbbf fda2 bd3d 284e a6be
000001b0: 5399 27c0 0b59 60bf 6b40 4cbf 07e2 7f3e
000001c0: 3557 a0bd 8e7d 03c0 86f1 3fbf 1c9d d8be
000001d0: 0011 a93b 4596 4cbe b140 55c0 ed51 efbe
000001e0: 8570 213e fdf8 9dbf 81cb debf 6513 ff3e
000001f0: eddf 9abe 0d3d 03c0 c810 0fc0 e9ea a33f
00000200: 1776 69be 2f0e 493f e971 17bf 39f8 553f
00000210: 41ec 2c3e c8ac 4dc0 57cf 55c0 40c9 6ebf
00000220: f383 32c0 07cc 76bf 4f7d 4f3f 004f 5bbd
00000230: 9cac 733f 697d 22c0 f758 3ac0 371f b6bf
00000240: 8a0d 54c0 020e 013f dade a9bf fa71 153f
00000250: 219a 4cbf ada6 1dc0 282f d0be f860 023f
00000260: d83b e0bf f165 83bf 0118 8e3e 80b0 35bf
00000270: 81e0 03bf d515 81c0 09d5 ff3e e9fa 0c3f
00000280: 5c86 47bf bc57 1bc0 868e 5abf 406b 1bc0
00000290: 6832 edbe bfe9 26bf 7483 ac3f f4d2 d5bf
000002a0: c91e 953f 2efe 29bf d890 35bf b724 13c0
000002b0: 76db 04be 3973 33c0 d828 c53e 4c22 d3bf
000002c0: 5885 9b3e baba af3e 6eb9 a2bf 03d4 29bd
000002d0: 64af 77bf 98ed 72c0 10c1 493e ef01 56be
000002e0: dcd3 803f 81c8 b7bf b546 2f3e 017a febd
000002f0: 773c 003f bf31 52c0 0b8d 16c0 41e2 e4bf
00000300: ca6c c0bf deb7 ccbd 7c1a 0bc0 44c0 a0be
00000310: 7e26 2c3f 068c 0bc0 c2d7 7cbe a283 c5bf
00000320: d928 3dc0 6aba d2bd d492 2b3e d15a 22c0
00000330: 28c3 06c0 d1e3 953d 6594 e13e 7dc5 853e
-0.90502006 -3.2344773 -0.40048423 -0.7178405 -0.028299602 -1.4166734 -0.5711335 -0.54623955
-1.6782168 -1.6929896 0.42075494 -2.6916244 0.29521298 0.060985833 -1.6630611 -2.0354688
-2.2665572 -1.564932 0.38573524 -1.8714209 0.45968595 -2.5725715 0.4700977 -1.6146648
-2.630929 -2.0699265 -1.8776057 -1.8107705 0.17036852 0.6457592 -0.1494149 -0.84923995
0.96156794 0.10574011 -2.139896 -0.100385495 -2.2436008 -0.67234266 -0.942694 0.00048358532
-0.34258097 -0.5277686 -0.9141247 -1.1579199 -1.0183043 -0.1832202 -1.6295304 -0.5832558
-1.2254486 -0.83675104 -2.0477898 0.20514259 -2.5740967 0.4390546 -0.3700204 0.6331873
-0.16735326 0.5858536 -3.2298245 -2.3836694 -0.7273285 0.80967516 -0.37483972 -1.0210369
-0.5421228 0.378339 -3.925717 0.40950888 -0.8992899 -0.081197 -1.1970158 -0.00841598
-0.570125 1.0084589 -2.8213425 -0.45947796 -2.577592 -0.37207243 0.67454046 0.02889249
0.4234612 0.2956958 0.42215908 -2.4457853 -3.0106807 -0.680994 0.13892932 -0.6668546
0.17506973 -1.956124 -0.18057044 -3.0762079 -1.1130322 0.09245848 -0.66153 0.09126945
0.0060629724 0.28962067 -1.7353866 -0.88331085 0.38539436 0.008217645 -3.3821025 -2.467151
0.30193144 -1.7115285 0.09259603 -0.32481503 -2.6187332 -0.8763587 -0.79785794 0.24988566
-0.078291334 -2.0545382 -0.7497791 -0.42307365 0.0051594973 -0.19979198 -3.3320735 -0.46742192
0.15765579 -1.234161 -1.7405854 0.49819484 -0.30248967 -2.0506012 -2.2353992 1.2806064
-0.22798954 0.7853727 -0.5915819 0.8358188 0.16886999 -3.2136707 -3.34078 -0.93275833
-2.7893035 -0.9640507 0.8105058 -0.053542137 0.95185256 -2.5389044 -2.91168 -1.4228276
-3.3133264 0.50412 -1.3271134 0.5837704 -0.7992268 -2.463298 -0.40660977 0.5092921
-1.7518263 -1.0265485 0.2775269 -0.7097244 -0.5151444 -4.033915 0.4996722 0.5507036
-0.7793939 -2.42723 -0.85373724 -2.428421 -0.4632752 -0.6520042 1.3477616 -1.6705003
1.165002 -0.6640347 -0.7092414 -2.299116 -0.12974343 -2.8039076 0.38507724 -1.6494842
0.3037517 0.3432215 -1.2712839 -0.041461956 -0.96752 -3.7957516 0.19702554 -0.20899175
1.0064654 -1.4358064 0.17116816 -0.12425614 0.5009226 -3.2842863 -2.3523586 -1.7881547
-1.50332 -0.099960074 -2.1734915 -0.31396687 0.67246234 -2.1804214 -0.2469168 -1.5430796
-2.9556181 -0.10289462 0.16755229 -2.536793 -2.1056614 0.07318843 0.4405853 0.26127234

l3.bias f4 [26]
00000000: 1251 7b3e 80f6 483d 0c82 5ebe 32a4 97be
00000010: 9bf7 02be 6d52 38be bfca b0be f1d3 893e
00000020: bb03 1cbf cd6b 17bd 9e12 863e 5333 c2be
00000030: 9b7a 393e f2dd 823e 9e0f 5abf e517 babe
00000040: 6874 dbb9 a05f 26bd cb84 9a3e 7b26 1f3e
00000050: 6527 0a3f 5926 2ebf 1436 edbe 5746 f53e
00000060: 3dfd 513e f0b9 513e
0.24542645 0.049063206 -0.21729296 -0.2961746 -0.12789766 -0.18000193 -0.34529683 0.2691951
-0.6094319 -0.03696804 0.2618608 -0.37929782 0.18113177 0.25559956 -0.8518008 -0.36346355
-0.00041857664 -0.04061854 0.30179438 0.15542023 0.5396636 -0.68027264 -0.4633032 0.47905228
0.20506759 0.20481086
